models/train/model_50.pt (torch, 1407 bytes, 2 tensors)

conv1.W f4 [4, 10]
000000 49 f7 c1 3e 63 94 1a 3e bb 30 73 3f 6b 62 0c 3f
       0.37883976 0.15095668 0.9499623 0.54837674
000010 56 d1 8b 3f ae cf 90 3f 4a a5 9b 3f 87 77 77 3e
       1.0923259 1.1313379 1.2159817 0.2416669
000020 d3 9d f3 3d e4 e2 77 3f f6 92 df 3c 54 51 8f 3f
       0.11895337 0.9683058 0.027291756 1.1196694
000030 86 6d e1 3c 6a a8 6f 3c c7 c9 0b 3c 4a 6c 81 bc
       0.027518045 0.014627555 0.008531994 -0.015798707
000040 69 84 a5 be 34 d0 85 be 57 f3 10 bf a8 e3 e0 3e
       -0.32327583 -0.2613541 -0.5662131 0.43923688
000050 ad 4e 9a bd 7d 4a a2 bf 22 ad f0 bd a7 b0 92 bd
       -0.075345375 -1.2678982 -0.117517725 -0.071626
000060 4c 25 66 bd db 77 9d bd fc 99 2c 3e 94 5e 87 3e
       -0.056187913 -0.07688876 0.16855615 0.26439345
000070 ef 69 1e 3f ed bf 54 bf 25 2f ff 3c c2 4a b2 be
       0.6188039 -0.83105356 0.03115041 -0.3482266
000080 06 27 c1 3f c2 2f 95 3f 94 5c 8c 3f fe fd a2 3f
       1.5090034 1.16552 1.0965753 1.2733762
000090 7e fc 73 3f f1 e5 ea bd 81 19 9c be 0a 8a 31 3f
       0.9530715 -0.11469639 -0.30488208 0.69351256

conv2.W f4 [10, 2]
000000 5f 1a 5c 3f 14 03 1b 3f 60 3b bf 3d 07 70 67 3f
       0.8597774 0.6055157 0.09337497 0.90405315
000010 4f b1 fc 3e cd a2 c9 3d e1 bc 39 3f 1a 5c c6 3e
       0.49354026 0.09845505 0.7255383 0.38742143
000020 33 3f 21 3f b3 41 4b 3e 9c 27 52 3f eb bc b3 3e
       0.6298706 0.19849281 0.8209169 0.3510507
000030 94 e0 24 3f f6 94 be bd e0 6c 59 3f db 25 79 3f
       0.6440518 -0.09305756 0.84931755 0.9732339
000040 56 42 f4 3e f5 e6 52 3f 26 e7 9e 3f a7 2f 2e be
       0.4770686 0.8238366 1.2414291 -0.17010365
