models/train/model_40.pt (torch, 1345 bytes, 2 tensors)

conv1.W f4 [4, 10]
000000 17 7b 47 3f b0 29 ba 3c 95 35 84 3f 6c 37 65 3d
       0.77922195 0.022724956 1.0328852 0.055961058
000010 8c 5a 5f 3e 2a 6e c9 3e 9f 4b a5 3f a4 01 ea 3e
       0.21811885 0.3934186 1.2913703 0.45704377
000020 bd 02 96 3f 43 68 60 3e 70 b0 71 3d 4e ab 59 bd
       1.1719586 0.21914773 0.059006155 -0.053141885
000030 92 2c 85 3d f4 85 d2 3e 83 2b 78 3f 46 1d df 3e
       0.06502642 0.41117823 0.96941394 0.4357702
000040 8b 0c 09 bc aa c9 63 3d 4f bf a4 3d 87 70 e2 3d
       -0.008364807 0.055612244 0.08044302 0.11056619
000050 fc d8 fc bd 86 5b 93 3e 79 89 2d be fe bc f2 be
       -0.12346074 0.28780764 -0.16946973 -0.47409815
000060 af 9e 92 bf dc 15 47 bf 02 32 1c be 4c cd 02 be
       -1.1454676 -0.7776773 -0.15253451 -0.12773627
000070 a2 27 33 be 68 f4 fc bd 0a fe 4d 3f 11 d2 82 be
       -0.17495587 -0.12351304 0.8046576 -0.25550893
000080 51 57 cd 3f 3f 0a 1f 3f fe 85 58 3e 1e 4e 98 3f
       1.6042272 0.6212501 0.21144864 1.189884
000090 4f 90 2c 3f a1 a4 a0 3f f2 75 b3 3f a8 b0 45 3e
       0.674077 1.2550241 1.4020369 0.1930567

conv2.W f4 [10, 2]
000000 60 da 3f 3f 43 4f e2 3e 6b 94 35 3f 14 d5 76 3f
       0.7494259 0.44201097 0.7092959 0.9641888
000010 f1 3b 61 3f f2 1a bc 3e 52 02 ee 3e 4e 3f 34 3f
       0.8798209 0.36739308 0.46486145 0.70409095
000020 ca 87 9f 3e dc c9 83 3f b6 fc 3c 3f 44 87 d7 be
       0.31158286 1.0295978 0.73823106 -0.42095387
000030 fd 10 3d 3f 4b 78 28 be bd 2d a2 3e 37 3d 1d bd
       0.7385405 -0.16452138 0.3167552 -0.038388457
000040 80 01 48 3f f4 d4 94 3e 37 a3 f0 3e 1c 84 07 3f
       0.7812729 0.2906872 0.46999523 0.5293596
