models/train/model_90.pt (torch, 1345 bytes, 2 tensors)

conv1.W f4 [4, 10]
00000000: 017c 423f f3c4 bc3d 67f6 7c3f a3a7 223d
00000010: 5f90 8e3d 516f 463f 7c53 a83f 9cec d53e
00000020: 7d94 913f 6ac4 623e 8d30 223d 555d bcbf
00000030: bd18 ad3d ce2d 033f 1511 d43f 4769 713f
00000040: 125e 8cbf 6d60 a23d 35b2 933d 2df9 033e
00000050: bf82 bfbd c3e1 9b3f 2b43 45be 433a 20bf
00000060: 8f33 00c0 12a6 cebf ce47 193f 8014 2fbe
00000070: 3cab 2abe 253a 21be 0775 783f 4e04 4abf
00000080: b9ed f13f 0da9 043f bcd0 1cbf 73cf dc3f
00000090: db52 b03f 71b5 be3f 31a1 d63f 0d36 2d3e
0.75970465 0.092172526 0.9881348 0.039710652 0.0696113 0.77513605 1.3150477 0.4178208
1.137344 0.22145239 0.039597083 -1.4715983 0.08451984 0.5124177 1.6567713 0.94301265
-1.0966208 0.07928548 0.07211725 0.12888022 -0.0935111 1.2178272 -0.19263904 -0.625889
-2.003147 -1.6144431 0.5987519 -0.17097664 -0.16666883 -0.15744837 0.9705357 -0.7891282
1.8900672 0.5182045 -0.61256003 1.7250808 1.3775285 1.4899122 1.6767942 0.1691515

conv2.W f4 [10, 2]
00000000: 29c3 263f d53e 0a3f c7f8 d53e 91b6 a03f
00000010: 5b2b 3d3f 5629 023f 1b9e fe3e 6ff1 2b3f
00000020: 0ae4 863d 823d a33f aa22 9e3f 480c 6bbf
00000030: 062f 8a3f 3f6b 01bf 1ee9 803e 5aa0 1b3d
00000040: 344b 223f 4143 e03e d7f6 f63e 665a 043f
0.6514154 0.54002124 0.41791365 1.2555715 0.7389428 0.50844324 0.4973 0.67165273
0.06586464 1.2753146 1.2354329 -0.91815615 1.07956 -0.5055427 0.25177854 0.03799472
0.63396 0.4380131 0.482352 0.5170044
