models/train/model_70.pt (torch, 1407 bytes, 2 tensors)

conv1.W f4 [4, 10]
0	0x3ec5a67f	0.3860359
1	0x3e1d75f3	0.15377025
2	0x3f685813	0.9075939
3	0x3f0430c8	0.51636934
4	0x3f87b8ea	1.0603306
5	0x3f8c39b3	1.0955108
6	0x3f9cb69a	1.2243226
7	0x3e818548	0.25296998
8	0x3e09685e	0.13418719
9	0x3f7eeab5	0.99576885
10	0x3d62b2ce	0.055346303
11	0x3fb4ddf7	1.4130238
12	0x3d1eccbb	0.038769465
13	0x3d104369	0.035220537
14	0x3d008229	0.03137413
15	0x3d0667ce	0.03281384
16	0xbf569258	-0.8381705
17	0xbee75694	-0.4518324
18	0xbf83d9f3	-1.0300888
19	0x3f36e3fa	0.71441615
20	0xbe1869b3	-0.14884071
21	0xbfd5523e	-1.6665723
22	0xbe13b6d3	-0.1442521
23	0xbde8abb5	-0.113608755
24	0xbde5239a	-0.11188431
25	0xbdf8947b	-0.121376954
26	0x3eef1a88	0.4669993
27	0x3edc2e70	0.4300418
28	0x3f601d76	0.87544954
29	0xbf998d14	-1.1996179
30	0x3d26623e	0.040621035
31	0xbf3289c6	-0.69741476
32	0x3fd04fdc	1.6274371
33	0x3fa1da78	1.2644796
34	0x3f9db388	1.2320414
35	0x3fb0fc52	1.3827002
36	0x3f9b99d5	1.2156321
37	0xbe3d9745	-0.18514736
38	0xbef30690	-0.47465944
39	0x3f8a27bf	1.079338

conv2.W f4 [10, 2]
0	0x3f647775	0.89244777
1	0x3f12a624	0.5728476
2	0xbde3911a	-0.1111166
3	0x3f8250fd	1.0180966
4	0x3ee7243c	0.45144832
5	0x3e1061ba	0.1409978
6	0x3f3065c1	0.68905264
7	0x3ed948e4	0.42438424
8	0x3f072a82	0.52799237
9	0x3e9a0921	0.3008509
10	0x3f34bce6	0.70600736
11	0x3eeebc79	0.46628168
12	0x3f83f140	1.0307999
13	0xbef5a926	-0.47980613
14	0x3f43074f	0.7618303
15	0x3f87c731	1.0607663
16	0x3e9b1a88	0.3029368
17	0x3f7f7ad8	0.9979682
18	0x3fc3d08b	1.5298017
19	0xbeeaaedd	-0.45836535
