models/train/model_80.pt (torch, 1345 bytes, 2 tensors)

conv1.W f4 [4, 10]
00000000: 6042 443f 7905 b83d 0745 803f de6c 2d3d
00000010: 6662 d53d c5b6 333f c0d5 a83f da40 dd3e
00000020: 3544 933f dcab 623e 52b0 ed3c 1971 9ebf
00000030: 658b 803d 1a92 fb3e c39c c63f 4126 5d3f
00000040: bcc4 6abf 53eb 353d fac3 4b3d 7f0f 073e
00000050: df0d a9bd d75a 873f 0ad2 28be 08f2 1dbf
00000060: 4ce2 edbf 8b68 bdbf bfa5 063f 8346 0fbe
00000070: 084b 11be f364 1cbe 3b00 743f 2530 15bf
00000080: 91b7 ec3f 0fa4 093f bde4 d9be d169 d53f
00000090: 4bdf 903f 1bd5 b93f d484 d23f fd22 303e
0.7666378 0.08985419 1.0021065 0.042340152 0.10419159 0.7020076 1.3190231 0.4321354
1.150519 0.22135872 0.02901474 -1.2378265 0.062765874 0.49134904 1.551659 0.86386496
-0.9170644 0.044413876 0.049747445 0.13189505 -0.08254599 1.0574597 -0.16486374 -0.61697435
-1.8584685 -1.4797529 0.5259666 -0.13991742 -0.14188778 -0.15272884 0.9531285 -0.5827659
1.849352 0.5376596 -0.42557326 1.6672918 1.1318144 1.451816 1.6446786 0.17200847

conv2.W f4 [10, 2]
00000000: 4b89 283f b578 083f 28a4 cb3e c84b a33f
00000010: 16ee 413f 2ccd fa3e 6fb4 fc3e 4be6 2c3f
00000020: c4e3 c23d 887d 9f3f 4cc5 9c3f 7c51 68bf
00000030: 1718 8d3f 523d 07bf 02c8 8f3e 4982 ec3b
00000040: 3a4f 253f 1e3b da3e 5628 f63e 9dc1 043f
0.6583449 0.53309184 0.3977368 1.2757502 0.75753915 0.4898466 0.4935641 0.675389
0.09516099 1.2460184 1.224771 -0.90749335 1.1022977 -0.5282794 0.2808228 0.0072176796
0.64574015 0.42623228 0.4807765 0.5185793
