models/train/model_60.pt (torch, 1407 bytes, 2 tensors)

conv1.W f4 [4, 10]
0.38452864 0.15300132 0.9330912 0.53572536 1.0820173 1.1164806 1.2313224 0.24436747
0.12440804 0.98243284 0.04210804 1.2935463 0.039239552 0.03179715 0.011169616 0.029587772
-0.62874544 -0.3440457 -0.76302487 0.5957925 -0.1065731 -1.4513768 -0.11402536 -0.08403061
-0.07602978 -0.09465114 0.34283644 0.30583897 0.7134502 -1.0106059 0.03783741 -0.5065691
1.5731868 1.2197766 1.1833375 1.3407538 1.0602398 -0.142635 -0.3665546 0.88803333
00000000: f0e0 c43e 61ac 1c3e 11df 6e3f 4c25 093f
00000010: 8b7f 8a3f d6e8 8e3f f99b 9d3f 773b 7a3e
00000020: a4c9 fe3d b880 7b3f 7b79 2c3d ed92 a53f
00000030: a7b9 203d ba3d 023d c400 373c 0e62 f23c
00000040: 76f5 20bf c226 b0be 9955 43bf db85 183f
00000050: ff42 dabd b7c6 b9bf 2186 e9bd 3e18 acbd
00000060: 80b5 9bbd 75d8 c1bd 4288 af3e ed96 9c3e
00000070: aca4 363f 895b 81bf 66fb 1a3d 83ae 01bf
00000080: 2f5e c93f a421 9c3f 9a77 973f d29d ab3f
00000090: f0b5 873f e90e 12be 0bad bbbe 2756 633f

conv2.W f4 [10, 2]
0.8757665 0.5895266 -0.0043549864 1.0024674 0.47878906 0.11320543 0.70819616 0.40476435
0.60597634 0.22238761 0.7474473 0.4245202 0.87631065 -0.3253163 0.80379033 1.018761
0.41951978 0.88138574 1.3944395 -0.32311466
00000000: 3c32 603f 37eb 163f 46b4 8ebb da50 803f
00000010: d723 f53e 40d8 e73d 584c 353f 463d cf3e
00000020: 4421 1b3f 94b9 633e b558 3f3f b65a d93e
00000030: e555 603f dc8f a6be 34c5 4d3f c366 823f
00000040: 4ccb d63e 7fa2 613f fe7c b23f 496f a5be
