models/train/model_30.pt (torch, 1407 bytes, 2 tensors)

conv1.W f4 [4, 10]
000000 fd 08 b3 3e 8e 98 05 3e 23 1f 60 3f 78 a4 f9 3e
       0.34967795 0.13046476 0.8754751 0.48758292
000010 be a1 80 3f 8d 3e 83 3f 20 ce 8e 3f c1 28 85 3e
       1.004936 1.0253464 1.1156654 0.26007655
000020 ae 3d 30 3e 0b 8e 73 3f 15 c7 aa 3c 6e ff 62 3f
       0.17211029 0.95138615 0.020846883 0.88671005
000030 0d a6 a7 3c dd 98 ce 3c 60 5f 7f 3b bb 1c c5 3c
       0.020464921 0.025219375 0.003896676 0.024061551
000040 7d 98 25 3d 87 ec df bd 0d 77 6c be 99 7a 29 3e
       0.040428627 -0.10933786 -0.2309229 0.16550674
000050 6b 30 74 bd 04 3e 74 bf e3 17 0b be 2c 6d e2 bd
       -0.059616487 -0.9540713 -0.13583331 -0.11055979
000060 4c 42 b9 bd 34 9d db bd 8e 44 e6 bd ed 9a 20 3e
       -0.09045848 -0.107233435 -0.112435445 0.156841
000070 e7 ef a5 3e bf 5d e1 be 6f 4c ec 3c 90 83 35 be
       0.32409593 -0.44016835 0.02884504 -0.17725968
000080 dd 4e b1 3f 01 05 88 3f 3e c2 72 3f 4a 06 8e 3f
       1.3852192 1.0626527 0.9482764 1.1095669
000090 07 21 58 3f 59 d6 af bd 4e db 66 be 39 70 e5 3e
       0.84425396 -0.085858054 -0.22544596 0.44812182

conv2.W f4 [10, 2]
000000 b0 81 50 3f c4 9b 26 3f d7 c3 35 3e 78 e6 51 3f
       0.8144789 0.6508143 0.17750488 0.8199229
000010 36 8e 11 3f aa da bf 3c 6f af 4a 3f 11 77 a4 3e
       0.5685762 0.023419697 0.7917394 0.3212209
000020 58 87 2d 3f 2f 21 1a 3e 77 09 5e 3f 38 f9 9b 3e
       0.67784643 0.15051721 0.8673319 0.30463576
000030 26 b8 05 3f a3 b7 ea 3c 6a 52 5a 3f 54 40 78 3f
       0.52234113 0.028652018 0.85282004 0.96973157
000040 e4 39 06 3f 48 ce 46 3f 0d ac 72 3f 50 b2 fc 3d
       0.52432084 0.7765851 0.9479378 0.12338698
