models/train/model_30.pt (torch, 1345 bytes, 2 tensors)

conv1.W f4 [4, 10]
00000000: 9a73 3d3f 3efb ee3c c366 773f 1b46 793d
00000010: 9182 6f3e 658f ad3e 5372 943f 6238 e23e
00000020: a56f 8d3f 0307 603e e2ef 393d c193 e1bc
00000030: d5bf b73d d31a ad3e f37d 603f f89c 863e
00000040: 1989 223d e925 8e3d b552 693d de3f c43d
00000050: 1f84 8ebd f9cf 8a3e 3dad 22be 792a dcbe
00000060: b8a9 73bf 96bb 07bf bc5d 4bbe d4e1 f3bd
00000070: 9797 5abe 0e1f e5bd 4f87 413f b29b 56be
00000080: dbba c13f 3861 263f 8e53 953e 5eda 923f
00000090: 6fb6 3e3f a0da 983f b609 a73f 8811 4c3e
0.7400452 0.029172536 0.96641177 0.060857873 0.23389651 0.33898464 1.1597389 0.44183642
1.1049696 0.21877675 0.045394786 -0.027536275 0.08972136 0.33809528 0.87692183 0.26291633
0.039681528 0.069408245 0.05696364 0.09582494 -0.06958794 0.27111796 -0.15886398 -0.43001154
-0.95180845 -0.5302061 -0.19859976 -0.11908308 -0.2134689 -0.11187564 0.7559709 -0.2095783
1.5135149 0.64992094 0.2916531 1.147289 0.7449712 1.1941719 1.3049839 0.19928563

conv2.W f4 [10, 2]
00000000: 5afb 483f 5a0d d03e cee2 353f b086 763f
00000010: 35f7 703f 71a4 9c3e ff35 f53e 7ba5 303f
00000020: f897 b83e 8e0b 7b3f c136 0c3f d7f6 6bbe
00000030: 2782 2e3f fb79 dcbd 8a85 c73e 92fd e3bd
00000040: 2639 543f 65cb 783e 8eff f23e e755 063f
0.7850853 0.40635186 0.710492 0.96299267 0.9412721 0.3059421 0.47892758 0.69002503
0.36053443 0.98064506 0.5477105 -0.2304338 0.68167347 -0.107654534 0.3896907 -0.11132349
0.828997 0.24296339 0.47460598 0.52474827
