models/train/model_80.pt (torch, 1407 bytes, 2 tensors)

conv1.W f4 [4, 10]
0.38798136 0.16150604 0.8845922 0.49547347 1.0450715 1.0785648 1.2265424 0.26131573
0.12914436 0.9960294 0.06740784 1.530585 0.06339692 0.056724183 0.039593562 0.04755031
-1.039185 -0.5430046 -1.2625217 0.7793388 -0.17438991 -1.8654747 -0.16289449 -0.14037457
-0.10670163 -0.12407918 0.57298326 0.55862474 0.98520213 -1.3674737 0.034566764 -0.8604921
1.6867453 1.316908 1.2688465 1.4251862 1.4252744 -0.24699646 -0.62334186 1.2141542
00000000: 7ea5 c63e d761 253e a274 623f b3ae fd3e
00000010: e7c4 853f 690e 8a3f 57ff 9c3f 2dcb 853e
00000020: 6b3e 043e c8fb 7e3f 1f0d 8a3d 36ea c33f
00000030: 3fd6 813d 9e57 683d dc2c 223d 1dc4 423d
00000040: 0404 85bf 5902 0bbf 509a a1bf bf82 473f
00000050: 4593 32be e0c7 eebf d0cd 26be 5abe 0fbe
00000060: 6286 dabd 3a1d febd 08af 123f 0802 0f3f
00000070: 3536 7c3f 6109 afbf e195 0d3d 3649 5cbf
00000080: 45e7 d73f 7190 a83f 9069 a23f 806c b63f
00000090: 646f b63f a4ec 7cbe 5593 1fbf 6869 9b3f

conv2.W f4 [10, 2]
0.90423125 0.56106406 -0.18146098 1.0419368 0.4325616 0.16192557 0.6736455 0.4416841
0.49691182 0.33387327 0.6838796 0.4903454 1.0778785 -0.52688414 0.7497604 1.0728874
0.2702715 1.0306324 1.5943854 -0.52224815
00000000: b37b 673f e5a1 0f3f e8d0 39be 2f5e 853f
00000010: b778 dd3e d1cf 253e 0874 2c3f 6b24 e23e
00000020: 3a6b fe3e 70f1 aa3e bc12 2f3f 8d0e fb3e
00000030: ecf7 893f e1e1 06bf 4cf0 3f3f 6054 893f
00000040: 0761 8a3e c3eb 833f d214 cc3f 0eb2 05bf
