models/train/model_40.pt (torch, 1407 bytes, 2 tensors)

conv1.W f4 [4, 10]
0	0x3eba9fc5	0.3645002
1	0x3e133907	0.14377223
2	0x3f6b81ba	0.9199482
3	0x3f070459	0.5274101
4	0x3f878c24	1.0589643
5	0x3f8a6966	1.0813415
6	0x3f94e318	1.1631804
7	0x3e8086ec	0.25102937
8	0x3e16286d	0.14663859
9	0x3f74e97c	0.9566877
10	0x3ca6fed6	0.020385187
11	0x3f817674	1.0114274
12	0x3cc37c1d	0.023862893
13	0x3d142e8a	0.036177196
14	0xbcebd38f	-0.028787402
15	0xbccf5d32	-0.025312994
16	0xbbcbb5cb	-0.00621674
17	0xbe4abc6e	-0.19798443
18	0xbee01fd7	-0.43774292
19	0x3e9ca874	0.3059727
20	0xbd83723a	-0.06418271
21	0xbf8a27f3	-1.0793442
22	0xbe113f7c	-0.14184374
23	0xbdc6cffa	-0.09707637
24	0xbd455043	-0.048172247
25	0xbd1c42c1	-0.0381496
26	0xbd172e83	-0.03690959
27	0x3e6dab1c	0.23209804
28	0x3f008ff3	0.5021965
29	0xbf1f196b	-0.6214816
30	0x3cef0aee	0.029180016
31	0xbe7d8f93	-0.247618
32	0x3fb96e8e	1.4486864
33	0x3f8f7546	1.1207664
34	0x3f82ad1e	1.0209081
35	0x3f984738	1.1896734
36	0x3f6890b7	0.9084582
37	0xbdcb24b2	-0.099191085
38	0xbe86e4f4	-0.26346552
39	0x3f0b16a8	0.54331446

conv2.W f4 [10, 2]
0	0x3f56aa6d	0.838538
1	0x3f207307	0.6267552
2	0x3e2b14e0	0.16707182
3	0x3f549237	0.83035606
4	0x3f08f217	0.534944
5	0x3d69aea3	0.057051312
6	0x3f3f1ad8	0.74650335
7	0x3ebba03e	0.36645693
8	0x3f2a74eb	0.6658465
9	0x3e266ac5	0.16251667
10	0x3f5d6b0b	0.8649146
11	0x3e9d35fb	0.30705246
12	0x3f028d98	0.50997305
13	0x3d280548	0.04102066
14	0x3f5838a7	0.84461445
15	0x3f7a5a14	0.977937
16	0x3efd674b	0.4949287
17	0x3f4e5479	0.80597645
18	0x3f89b4ed	1.0758339
19	0xbb93b840	-0.0045080483
