models/train/model_20.pt (torch, 1345 bytes, 2 tensors)

conv1.W f4 [4, 10]
000000 a8 9a 2d 3f c8 6e 1e 3d 4a e6 58 3f 2d 42 94 3d
       0.6781411 0.038679868 0.84726393 0.072391845
000010 86 80 87 3e 94 09 92 3e de 7b 82 3f 7f 5f ce 3e
       0.26465243 0.28522933 1.0194051 0.40307233
000020 4b 19 7f 3f 78 20 61 3e e6 8f 50 3c 75 b6 9b bc
       0.9964797 0.21985042 0.012729621 -0.0190079
000030 24 d1 04 3d 80 e4 91 3e 60 a9 2e 3f e5 0f f5 3d
       0.032426015 0.28494644 0.68227196 0.11965922
000040 58 de de bc c3 92 4a 3d be 0e d5 bc f8 e3 b1 3d
       -0.027205631 0.04945637 -0.026008006 0.0868606
000050 f2 c2 a3 bd dd eb 6a 3e 02 44 e3 bd 8f 1b c4 be
       -0.07996167 0.22941537 -0.11096956 -0.38302276
000060 da 2c 53 bf 7f 24 84 be b5 ea 10 be 63 bb 1e be
       -0.82490313 -0.25809094 -0.14152034 -0.1550117
000070 51 c6 3c be ad 95 cb bd c9 2b 35 3f 40 d1 2e be
       -0.18435027 -0.09940658 0.70769936 -0.1707201
000080 f1 d7 b1 3f 95 35 2b 3f bb bc b5 3e 50 ca 94 3f
       1.3894025 0.66878635 0.35495552 1.1624241
000090 a7 d7 49 3f 6e 78 8f 3f 67 e8 9b 3f ab 51 50 3e
       0.78844684 1.1208627 1.2180299 0.20343654

conv2.W f4 [10, 2]
000000 73 c0 47 3f 1f 83 d2 3e c5 3b 3b 3f ba 2d 71 3f
       0.7802803 0.41115662 0.73138076 0.942104
000010 13 f9 7e 3f a4 a0 80 3e 8e f6 fe 3e 23 c5 2b 3f
       0.9959881 0.2512256 0.4979748 0.6709768
000020 11 97 c7 3e f8 8b 73 3f 38 9d e1 3e 96 ac fc bd
       0.38982442 0.9513545 0.4406526 -0.12337606
000030 0a 98 24 3f 31 29 8d bd 11 74 bf 3e e2 b7 c3 bd
       0.64294493 -0.06892622 0.3739324 -0.09556557
000040 2c 81 5f 3f 44 ab 4b 3e 3f 19 f7 3e 02 49 04 3f
       0.87306476 0.19889551 0.4826145 0.516739
