models/train/model_90.pt (torch, 1407 bytes, 2 tensors)

conv1.W f4 [4, 10]
0.39346838 0.15646441 0.86842084 0.47908735 1.0348132 1.0666449 1.2465957 0.26065913
0.11617628 1.0110964 0.08203308 1.6557975 0.06954709 0.07537142 0.047781747 0.05418599
-1.2133396 -0.6891217 -1.4239876 0.90963477 -0.20124407 -2.0436707 -0.1710863 -0.14053547
-0.10755475 -0.13027847 0.6574079 0.5559731 1.1341033 -1.5330431 0.026581703 -0.96638656
1.7327079 1.3552687 1.295647 1.45734 1.6336981 -0.31279078 -0.7687529 1.2642578
00000000: b074 c93e 3538 203e d450 5e3f f04a f53e
00000010: c274 843f d287 883f 7390 9f3f 1d75 853e
00000020: d4ed ed3d 9b6b 813f f600 a83d 2cf1 d33f
00000030: b46e 8e3d 555c 9a3d cbb6 433d 21f2 5d3d
00000040: b64e 9bbf 486a 30bf 3a45 b6bf d3dd 683f
00000050: ed12 4ebe 80cb 02c0 3f31 2fbe 88e8 0fbe
00000060: aa45 dcbd b867 05be e24b 283f 4154 0e3f
00000070: 4c2a 913f c23a c4bf dfc1 d93c 1c65 77bf
00000080: 5fc9 dd3f 7279 ad3f c3d7 a53f 1e8a ba3f
00000090: 051d d13f 1d26 a0be fdcc 44bf 33d3 a13f

conv2.W f4 [10, 2]
0.9224671 0.5428309 -0.23908061 1.1106043 0.4126814 0.18559577 0.65367115 0.46470666
0.4909587 0.3431768 0.67686677 0.5005685 1.0957105 -0.54471743 0.7373223 1.0854234
0.25521615 1.0456872 1.6307617 -0.55711097
00000000: ce26 6c3f f7f6 0a3f 8cd1 74be 4828 8e3f
00000010: fa4a d33e d10c 3e3e fe56 273f 08ee ed3e
00000020: f05e fb3e dfb4 af3e 2447 2d3f 4225 003f
00000030: 3e40 8c3f 9a72 0bbf 27c1 3c3f 27ef 8a3f
00000040: b1ab 823e 14d9 853f cdbc d03f d39e 0ebf
