models/train/model_10.pt (torch, 1407 bytes, 2 tensors)

conv1.W f4 [4, 10]
0.333553 0.20425263 0.6952139 0.3914421 0.8421576 0.83588094 0.9853054 0.26726314
0.1838772 0.8281737 0.04536767 0.5236157 0.06809763 0.024250694 0.016788831 0.038244907
-0.02013802 0.011747037 -0.017937012 0.049116865 0.001783757 -0.5012554 -0.087959774 -0.10739923
-0.08871774 -0.048308793 -0.010748038 0.07517534 0.2393976 -0.08953715 0.029157672 -0.07769738
1.1584553 0.9015683 0.7679209 0.90795696 0.7257936 -0.06267026 -0.15354536 0.4566826
00000000: 75c7 aa3e 9a27 513e 8af9 313f 196b c83e
00000010: a497 573f 4bfc 553f fa3c 7c3f b7d6 883e
00000020: 4e4a 3c3e 3103 543f 73d3 393d ae0b 063f
00000030: c576 8b3d 64a9 c63c bb88 893c b1a6 1c3d
00000040: 7df8 a4bc a576 403c a4f0 92bc c42e 493d
00000050: f4cc e93a 4652 00bf 4124 b4bd 21f4 dbbd
00000060: a5b1 b5bd 71df 45bd 8a18 30bc 87f5 993d
00000070: a524 753e 415f b7bd 12dc ee3c ce1f 9fbd
00000080: 4348 943f 2ecd 663f 7796 443f de6f 683f
00000090: 9ccd 393f 4459 80bd ff3a 1dbe 4dd2 e93e

conv2.W f4 [10, 2]
0.7161631 0.7491302 0.17086571 0.8265612 0.632985 -0.040988334 0.7941225 0.31883872
0.6710316 0.15733269 0.8708728 0.30109492 0.43050656 0.12048566 0.8675061 0.95504564
0.5332463 0.7676602 0.68515414 0.38617188
00000000: 7756 373f ffc6 3f3f 6cf7 2e3e 8499 533f
00000010: 4e0b 223f 62e3 27bd 9d4b 4b3f d43e a33e
00000020: bac8 2b3f d21b 213e 85f1 5e3f 1d29 9a3e
00000030: 5b6b dc3e 30c1 f63d e114 5e3f df7d 743f
00000040: d482 083f 6185 443f 4366 2f3f 52b8 c53e
