models/train/model_50.pt (torch, 1345 bytes, 2 tensors)

conv1.W f4 [4, 10]
0	0x3f4973e1	0.7869244
1	0x3d05199f	0.032495137
2	0x3f8570d8	1.0425062
3	0x3d5d9caf	0.054104503
4	0x3e4e6f50	0.2015965
5	0x3ee699b7	0.4503915
6	0x3faf26d5	1.3683726
7	0x3ee99191	0.4561887
8	0x3f97e39b	1.1866335
9	0x3e617a9e	0.22019431
10	0x3d393182	0.04521323
11	0xbe93e989	-0.2888911
12	0x3d341957	0.04396948
13	0x3ee1dee0	0.44115353
14	0x3f928352	1.1446326
15	0x3f0acc16	0.5421766
16	0xbe3707d0	-0.17874074
17	0x3ce4d49c	0.027933411
18	0x3d4d2972	0.050088353
19	0x3deda827	0.11604338
20	0xbddabfc8	-0.106811106
21	0x3edc9e6d	0.4308962
22	0xbe061bd0	-0.13096547
23	0xbf0774d9	-0.5291267
24	0xbfa70475	-1.3048235
25	0xbf86fc18	-1.0545683
26	0x3d907524	0.07053593
27	0xbdd21854	-0.102585465
28	0xbe04579f	-0.1292405
29	0xbe0dfe4c	-0.13866538
30	0x3f5c8c25	0.86151344
31	0xbe9f4ba6	-0.31112403
32	0x3fd90815	1.6955591
33	0x3f180c73	0.59393996
34	0x3db74d4d	0.08950291
35	0x3fa617fc	1.297607
36	0x3f2302a2	0.6367589
37	0x3fa90460	1.320446
38	0x3fc0ff85	1.5077978
39	0x3e3e09a9	0.18558373

conv2.W f4 [10, 2]
0	0x3f3d5180	0.73952484
1	0x3ee760fd	0.45191184
2	0x3f24ae1d	0.64328176
3	0x3f83ddab	1.0302023
4	0x3f610387	0.8789601
5	0x3ebc8bc2	0.36825377
6	0x3ef2fcf9	0.47458628
7	0x3f31c201	0.6943665
8	0x3e74a17c	0.23889726
9	0x3f8d17a7	1.1022843
10	0x3f726c07	0.94696087
11	0xbf2132f1	-0.62968355
12	0x3f4b27d5	0.79357654
13	0xbe60d3ba	-0.21955767
14	0x3ea8c233	0.32960662
15	0xbd51aa00	-0.051187515
16	0x3f4b77de	0.7947978
17	0x3e8de828	0.27716184
18	0x3ef20e06	0.47276324
19	0x3f06ceb7	0.5265917
