models/train/model_70.pt (torch, 1345 bytes, 2 tensors)

conv1.W f4 [4, 10]
000000 1a 22 46 3f 8f 01 9d 3d 81 3a 82 3f 4f 77 3c 3d
       0.77395785 0.07666313 1.0174104 0.04601222
000010 07 23 10 3e 7a ad 1e 3f 8b 6e ab 3f 46 c4 e2 3e
       0.14075862 0.61983454 1.339311 0.4429037
000020 a9 cc 94 3f 43 4d 62 3e a2 70 cb 3c e9 5a 77 bf
       1.1624957 0.22099786 0.024833981 -0.9662309
000030 16 75 50 3d a9 67 f7 3e 39 55 b7 3f 88 53 42 3f
       0.05089291 0.48321274 1.4322883 0.7590871
000040 03 1a 2c bf 45 03 ba 3c aa 76 22 3d bb 18 09 3e
       -0.6722719 0.022706637 0.039663948 0.1338834
000050 17 57 9b bd 6f 75 4b 3f b4 e1 12 be 70 59 16 bf
       -0.075849704 0.79476064 -0.14343911 -0.5873022
000060 d4 a0 d7 bf 87 09 ad bf 69 e3 c6 3e bb b4 d9 bd
       -1.6845956 -1.3518533 0.38845375 -0.10630175
000070 43 8f f2 bd 9b bc 14 be 72 f2 6e 3f 28 7c e1 be
       -0.11843731 -0.14525072 0.9333869 -0.44040036
000080 98 88 e7 3f 1e 12 0f 3f 8c 72 6b be 35 85 c9 3f
       1.808856 0.5588702 -0.22992915 1.5743777
000090 85 c9 6f 3f 0e 73 b4 3f 47 67 ce 3f b5 fc 34 3e
       0.9366687 1.4097612 1.6125268 0.17674525

conv2.W f4 [10, 2]
000000 e0 ca 2e 3f 1f 37 02 3f 52 c3 02 3f 1c d3 94 3f
       0.6827831 0.5086536 0.51079285 1.1626925
000010 35 c5 49 3f f1 1e eb 3e 29 a4 f8 3e 77 ee 2e 3f
       0.7881654 0.45922044 0.48562744 0.6833262
000020 06 94 17 3e 4a b9 98 3f e0 1b 95 3f b4 fe 58 bf
       0.1480256 1.1931546 1.1649132 -0.84763646
000030 a1 dd 7c 3f 7a d5 d3 be 3e 79 94 3e b7 63 f7 ba
       0.9877568 -0.41373807 0.2899875 -0.0018874322
000040 1d ce 2c 3f 71 3d cb 3e c8 78 f3 3e 60 19 06 3f
       0.67502004 0.39695314 0.47553086 0.5238247
