models/train/model_20.pt (torch, 1407 bytes, 2 tensors)

conv1.W f4 [4, 10]
000000 ae 5a ac 3e ec 9c 15 3e 19 a2 4f 3f 6e ee e9 3e
       0.33662933 0.14610642 0.81106716 0.4568972
000010 ad 9b 70 3f 5e 4d 72 3f 0a ef 86 3f 5e 04 86 3e
       0.9398754 0.946493 1.0541699 0.26175207
000020 04 ea 33 3e 10 26 69 3f ab 7c 76 3c e5 4b 40 3f
       0.17569739 0.91073704 0.015044372 0.75115806
000030 f0 91 92 3d 5c 98 80 3d 9b 28 68 3d 7d a0 1e 3c
       0.071567416 0.0627906 0.05667935 0.009681818
000040 8d 15 93 3d 06 b6 3b bd e4 37 60 bd ad 6c 53 3d
       0.07181845 -0.045827888 -0.0547408 0.051617313
000050 4f 81 1d bd 52 5c 48 bf 52 b5 09 be c9 7d 24 be
       -0.038453396 -0.7826587 -0.13448074 -0.16063608
000060 15 c3 c9 bd 00 a8 a9 bd 70 da c2 bd e5 61 b2 3d
       -0.09851662 -0.082839966 -0.0951432 0.08710078
000070 e2 86 89 3e b5 1e 3b be c8 70 eb 3c 0e 0d 07 be
       0.2686072 -0.18273433 0.028740302 -0.13188574
000080 cb 27 a7 3f ea 66 7d 3f 0d 03 5d 3f 74 75 81 3f
       1.3059019 0.9898516 0.8633278 1.0113969
000090 df b9 4b 3f 18 f7 99 bd e6 1c 4a be 0d 5e e6 3e
       0.7958049 -0.075178325 -0.19737586 0.4499363

conv2.W f4 [10, 2]
000000 b1 5c 45 3f c4 c0 31 3f 79 79 34 3e 06 39 52 3f
       0.7709456 0.6943476 0.17624463 0.8211826
000010 2e 5b 1e 3f 28 c4 d9 bc e5 3b 4e 3f 26 5e 9d 3e
       0.6185788 -0.026582792 0.8056014 0.30735892
000020 c7 ec 30 3f 87 8b 0c 3e 35 68 69 3f ce 3b 85 3e
       0.69111294 0.137251 0.9117463 0.2602219
000030 e5 74 02 3f 2c 8f 29 3d 49 1c 60 3f 77 76 72 3f
       0.50959617 0.041396305 0.8754316 0.94712013
000040 cd 4c 08 3f 64 bb 44 3f 92 8a 51 3f a8 6f 81 3e
       0.5324219 0.76848435 0.81852067 0.252805
