models/train/model_60.pt (torch, 1345 bytes, 2 tensors)

conv1.W f4 [4, 10]
0.7842411 0.054185294 1.0340441 0.050090834 0.17166421 0.5377805 1.3617404 0.45249173
1.177451 0.22050287 0.026758429 -0.6244632 0.045089476 0.48495317 1.2981856 0.65774655
-0.46092087 0.033031527 0.042474393 0.13175535 -0.073314875 0.6391852 -0.13267414 -0.5428797
-1.4944644 -1.2189542 0.2708334 -0.09370387 -0.11619837 -0.13751794 0.8995475 -0.34564438
1.7561527 0.57937557 -0.057342816 1.4479924 0.76508707 1.3657473 1.5675405 0.1815311
00000000: 06c4 483f 66f1 5d3d 8f5b 843f 0c2c 4d3d
00000010: bec8 2f3e fcab 093f 824d ae3f ffac e73e
00000020: b7b6 963f 81cb 613e 7e34 db3c d2dc 1fbf
00000030: beaf 383d c84b f83e f22a a63f 1462 283f
00000040: d2fd ebbe 114c 073d a1f9 2d3d e0ea 063e
00000050: 1c26 96bd a4a1 233f bbdb 07be 2afa 0abf
00000060: 9c4a bfbf b106 9cbf adaa 8a3e d1e7 bfbd
00000070: 69f9 edbd 81d1 0cbe bf48 663f 4df8 b0be
00000080: 9dc9 e03f f551 143f 4de0 6abd d157 b93f
00000090: bfdc 433f cfd0 ae3f 2ba5 c83f 4ae3 393e

conv2.W f4 [10, 2]
0.72184443 0.46959278 0.60813046 1.0653536 0.82055604 0.42682955 0.47751692 0.6914368
0.1908496 1.1503317 1.0876801 -0.7704033 0.87875915 -0.3047404 0.30262935 -0.014712916
0.7195074 0.3524657 0.47232848 0.5270259
00000000: ccca 383f 776e f03e 70ae 1b3f 825d 883f
00000010: f60f 523f 6789 da3e 197d f43e 0102 313f
00000020: 146e 433e 123e 933f 1a39 8b3f 2739 45bf
00000030: 5cf6 603f ef06 9cbe 3cf2 9a3e 710e 71bc
00000040: a331 383f 6276 b43e 0ad5 f13e 2beb 063f
