models/train/model_10.pt (torch, 1345 bytes, 2 tensors)

conv1.W f4 [4, 10]
0	0x3f1a3745	0.60240585
1	0x3d911edf	0.07085966
2	0x3f29acd4	0.6627934
3	0x3dbb386f	0.09141623
4	0x3eaa28ed	0.3323435
5	0x3e569ab1	0.20957448
6	0x3f584416	0.8447889
7	0x3ea3797d	0.31928626
8	0x3f530201	0.8242493
9	0x3e63efbf	0.22259425
10	0xbcc8c1ca	-0.024506468
11	0x3d3c60e1	0.04599083
12	0x3d05f0bf	0.032700296
13	0x3e752404	0.2393952
14	0x3ed72d50	0.42026758
15	0x3d093338	0.03349611
16	0x3d04d3e1	0.032428626
17	0x3c2acbfd	0.010424611
18	0xbdb455a0	-0.08805394
19	0x3de6813d	0.11255119
20	0xbd632ccf	-0.055462655
21	0x3e5dc1be	0.21655938
22	0xbdcc6c70	-0.0998162
23	0xbe867864	-0.26263726
24	0xbf132de0	-0.57491875
25	0xbdef0869	-0.11671526
26	0xbd108a50	-0.035288155
27	0xbdc84863	-0.09779432
28	0xbdd4af6e	-0.10385023
29	0xbd4cf1d0	-0.050035298
30	0x3f2868a6	0.6578468
31	0xbdebd22a	-0.11514695
32	0x3f9f3a18	1.2439604
33	0x3f337be6	0.7011093
34	0x3ee60b8f	0.44930694
35	0x3f8c9675	1.0983416
36	0x3f3ef897	0.7459807
37	0x3f82d921	1.0222512
38	0x3f8d676d	1.1047188
39	0x3e56767f	0.2094364

conv2.W f4 [10, 2]
0	0x3f31c60b	0.69442815
1	0x3efe77e8	0.49700856
2	0x3f34678f	0.7047052
3	0x3f7801f1	0.9687796
4	0x3f73e297	0.95267624
5	0x3e96cdb1	0.29453805
6	0x3f0574ea	0.5213152
7	0x3f25cb7a	0.64763606
8	0x3ee30e7c	0.44346988
9	0x3f65d032	0.89770806
10	0x3ecb0825	0.3965465
11	0xbda25852	-0.07927002
12	0x3f152e13	0.5827343
13	0xbc0ecc53	-0.008715707
14	0x3eb4584a	0.3522361
15	0xbd9748ca	-0.0738693
16	0x3f57e475	0.8433297
17	0x3e6a1e1a	0.22863045
18	0x3ef337d9	0.47503546
19	0x3f0639b1	0.5243178
