models/model_final.pt (torch, 1407 bytes, 2 tensors)

conv1.W f4 [4, 10]
000000 83 d4 cc 3e d8 1f 18 3e 03 1b 5b 3f 3a da ed 3e
       0.40005884 0.14855897 0.8558809 0.46455556
000010 3b 42 83 3f a4 11 87 3f 64 5d a4 3f c3 ff 80 3e
       1.0254587 1.0552258 1.2841 0.2519513
000020 69 7a bc 3d 24 30 83 3f 92 2a c3 3d 3b 82 e2 3f
       0.092030354 1.0249066 0.09529604 1.7695993
000030 5b ab 8d 3d 75 37 c3 3d 1a 62 48 3d 16 e2 7a 3d
       0.06917449 0.09532062 0.048921682 0.06125077
000040 23 00 b0 bf d6 5e 48 bf b5 6a c8 bf 83 98 80 3f
       -1.3750042 -0.7826971 -1.5657564 1.0046543
000050 f0 e3 68 be 2c c6 0d c0 8b 90 2d be 19 66 16 be
       -0.22743201 -2.2152205 -0.1694967 -0.14687385
000060 5a 8b f7 bd 96 d6 11 be 1b bb 36 3f 64 9f 18 3f
       -0.12087126 -0.14242014 0.7137925 0.5961821
000070 1f a3 a2 3f 32 76 d7 bf ba a1 9a 3c be d7 85 bf
       1.2706031 -1.6832945 0.018875945 -1.0456464
000080 21 11 e3 3f 80 83 b1 3f a6 f7 a8 3f 9e 65 be 3f
       1.7739602 1.3868256 1.3200576 1.4874761
000090 93 9d eb 3f 9f d9 c2 be d7 27 68 bf f3 c9 a9 3f
       1.8407463 -0.38056657 -0.9068579 1.3264755

conv2.W f4 [10, 2]
000000 a1 a8 70 3f d0 75 06 3f 67 2e 6c be e8 b5 92 3f
       0.9400731 0.5252352 -0.23064576 1.1461763
000010 3b 40 cc 3e 58 dc 4e 3e 3a 53 22 3f a4 50 fa 3e
       0.39892754 0.20201242 0.63408244 0.4888965
000020 27 5e f7 3e de 74 b5 3e 4d 86 2a 3f 21 c3 03 3f
       0.4831402 0.35440725 0.66611177 0.5146962
000030 a6 f3 89 3f 64 d9 06 bf 53 59 3b 3f 0a a3 8b 3f
       1.0777481 -0.5267546 0.7318317 1.090913
000040 e4 a8 86 3e c8 d9 84 3f 0e 9b d0 3f f1 f8 0d bf
       0.26300728 1.0378962 1.6297319 -0.5545798
