models/model_final.pt (torch, 1345 bytes, 2 tensors)

conv1.W f4 [4, 10]
0.75282043 0.08109712 0.9761413 0.03725508 0.04038291 0.8336229 1.333158 0.40547323
1.1259735 0.22154601 0.054857627 -1.6636095 0.10271161 0.51040214 1.7428429 1.0391678
-1.2631276 0.087281235 0.09564525 0.12682624 -0.09821199 1.3558242 -0.20237046 -0.6477245
-2.1170597 -1.7372164 0.6694376 -0.17104979 -0.17633736 -0.1602648 0.98695934 -0.96426874
1.9257637 0.4974938 -0.76445264 1.7507015 1.59965 1.5222952 1.7077799 0.16637023
00000000: d7b8 403f 3f16 a63d 65e4 793f c898 183d
00000010: 8d68 253d 4f68 553f eca4 aa3f 309a cf3e
00000020: e61f 903f f5dc 623e 64b2 603d 28f1 d4bf
00000030: 775a d23d b7a9 023f 7a15 df3f 7303 853f
00000040: 2aae a1bf 81c0 b23d a8e1 c33d bdde 013e
00000050: 5e23 c9bd a68b ad3f 343a 4fbe 46d1 25bf
00000060: e87d 07c0 1b5d debf 4360 2b3f ad27 2fbe
00000070: c891 34be 751c 24be 5ea9 7c3f 51da 76bf
00000080: 6d7f f63f 82b7 fe3e 2bb3 43bf fd16 e03f
00000090: 55c1 cc3f 92da c23f 8898 da3f f55c 2a3e

conv2.W f4 [10, 2]
0.6466297 0.54480696 0.41240698 1.2610795 0.73717964 0.5102064 0.5121331 0.6568198
0.03864227 1.3025362 1.2201078 -0.9028322 1.0830809 -0.50906366 0.24645276 0.04332028
0.6308328 0.44113928 0.485982 0.513374
00000000: 8689 253f 7878 0b3f 0227 d33e 0e6b a13f
00000010: ceb7 3c3f e39c 023f 281b 033f 5825 283f
00000020: 5b47 1e3d 82b9 a63f 7e2c 9c3f 0320 67bf
00000030: 65a2 8a3f ff51 02bf 1d5e 7c3e 9b70 313d
00000040: 427e 213f 02dd e13e a2d2 f83e 7a6c 033f
